…
[NeMo I 2025-11-26 02:30:24 rnnt_models:226] Using RNNT Loss : tdt
    Loss tdt_kwargs: {'fastemit_lambda': 0.0, 'clamp': -1.0, 'durations': [0, 1, 2, 3, 4], 'sigma': 0.02, 'omega': 0.1}
[NeMo I 2025-11-26 02:30:27 save_restore_connector:282] Model EncDecRNNTBPEModel was successfully restored from /root/.cache/huggingface/hub/models--nvidia--parakeet-tdt-0.6b-v3/snapshots/be0d803fd1970eca8627f5467c208118f0f6c171/parakeet-tdt-0.6b-v3.nemo.
EncDecRNNTBPEModel(
  (preprocessor): AudioToMelSpectrogramPreprocessor(
    (featurizer): FilterbankFeatures()
  )
  (encoder): ConformerEncoder(
    (pre_encode): ConvSubsampling(
      (out): Linear(in_features=4096, out_features=1024, bias=True)
      (conv): MaskedConvSequential(
        (0): Conv2d(1, 256, kernel_size=(3, 3), stride=(2, 2), padding=(1, 1))
        (1): ReLU(inplace=True)
        (2): Conv2d(256, 256, kernel_size=(3, 3), stride=(2, 2), padding=(1, 1), groups=256)
        (3): Conv2d(256, 256, kernel_size=(1, 1), stride=(1, 1))
        (4): ReLU(inplace=True)
        (5): Conv2d(256, 256, kernel_size=(3, 3), stride=(2, 2), padding=(1, 1), groups=256)
        (6): Conv2d(256, 256, kernel_size=(1, 1), stride=(1, 1))
        (7): ReLU(inplace=True)
      )
    )
    (pos_enc): RelPositionalEncoding(
      (dropout): Dropout(p=0.1, inplace=False)
    )
    (layers): ModuleList(
      (0-23): 24 x ConformerLayer(
        (norm_feed_forward1): LayerNorm((1024,), eps=1e-05, elementwise_affine=True)
        (feed_forward1): ConformerFeedForward(
          (linear1): Linear(in_features=1024, out_features=4096, bias=False)
          (activation): Swish()
          (dropout): Dropout(p=0.1, inplace=False)
          (linear2): Linear(in_features=4096, out_features=1024, bias=False)
        )
        (norm_conv): LayerNorm((1024,), eps=1e-05, elementwise_affine=True)
        (conv): ConformerConvolution(
          (pointwise_conv1): Conv1d(1024, 2048, kernel_size=(1,), stride=(1,), bias=False)
          (depthwise_conv): CausalConv1D(1024, 1024, kernel_size=(9,), stride=(1,), groups=1024, bias=False)
          (batch_norm): BatchNorm1d(1024, eps=1e-05, momentum=0.1, affine=True, track_running_stats=True)
          (activation): Swish()
          (pointwise_conv2): Conv1d(1024, 1024, kernel_size=(1,), stride=(1,), bias=False)
        )
        (norm_self_att): LayerNorm((1024,), eps=1e-05, elementwise_affine=True)
        (self_attn): RelPositionMultiHeadAttention(
          (linear_q): Linear(in_features=1024, out_features=1024, bias=False)
          (linear_k): Linear(in_features=1024, out_features=1024, bias=False)
          (linear_v): Linear(in_features=1024, out_features=1024, bias=False)
          (linear_out): Linear(in_features=1024, out_features=1024, bias=False)
          (dropout): Dropout(p=0.1, inplace=False)
          (linear_pos): Linear(in_features=1024, out_features=1024, bias=False)
        )
        (norm_feed_forward2): LayerNorm((1024,), eps=1e-05, elementwise_affine=True)
        (feed_forward2): ConformerFeedForward(
          (linear1): Linear(in_features=1024, out_features=4096, bias=False)
          (activation): Swish()
          (dropout): Dropout(p=0.1, inplace=False)
          (linear2): Linear(in_features=4096, out_features=1024, bias=False)
        )
        (dropout): Dropout(p=0.1, inplace=False)
        (norm_out): LayerNorm((1024,), eps=1e-05, elementwise_affine=True)
      )
    )
  )
  (decoder): RNNTDecoder(
    (prediction): ModuleDict(
      (embed): Embedding(8193, 640, padding_idx=8192)
      (dec_rnn): LSTMDropout(
        (lstm): LSTM(640, 640, num_layers=2, dropout=0.2)
        (dropout): Dropout(p=0.2, inplace=False)
      )
    )
  )
  (joint): RNNTJoint(
    (pred): Linear(in_features=640, out_features=640, bias=True)
    (enc): Linear(in_features=1024, out_features=640, bias=True)
    (joint_net): Sequential(
      (0): ReLU(inplace=True)
      (1): Dropout(p=0.2, inplace=False)
      (2): Linear(in_features=640, out_features=8198, bias=True)
    )
    (_loss): RNNTLoss(
      (_loss): TDTLossNumba()
    )
    (_wer): WER()
  )
  (loss): RNNTLoss(
    (_loss): TDTLossNumba()
  )
  (spec_augmentation): SpectrogramAugmentation(
    (spec_augment): SpecAugment()
  )
  (wer): WER()
)
正在註冊 LayerNorm Hooks...
Hooks 已移除。

====================================================================================================
…
